nohup: ignoring input
Using Theano backend.
0.5
50
compiled model successfully
____________________________________________________________________________________________________
Layer (type)                     Output Shape          Param #     Connected to                     
====================================================================================================
input (InputLayer)               (None, 3, 32, 32)     0                                            
____________________________________________________________________________________________________
zeropadding2d_1 (ZeroPadding2D)  (None, 3, 34, 34)     0           input[0][0]                      
____________________________________________________________________________________________________
convolution2d_1 (Convolution2D)  (None, 96, 32, 32)    2688        zeropadding2d_1[0][0]            
____________________________________________________________________________________________________
lambda_2 (Lambda)                (None, 50, 32, 32)    0           convolution2d_1[0][0]            
____________________________________________________________________________________________________
batchnormalization_2 (BatchNorma (None, 50, 32, 32)    200         lambda_2[0][0]                   
____________________________________________________________________________________________________
convolution2d_2 (Convolution2D)  (None, 64, 32, 32)    3264        batchnormalization_2[0][0]       
____________________________________________________________________________________________________
batchnormalization_3 (BatchNorma (None, 64, 32, 32)    256         convolution2d_2[0][0]            
____________________________________________________________________________________________________
activation_1 (Activation)        (None, 64, 32, 32)    0           batchnormalization_3[0][0]       
____________________________________________________________________________________________________
zeropadding2d_2 (ZeroPadding2D)  (None, 64, 34, 34)    0           activation_1[0][0]               
____________________________________________________________________________________________________
atrousconvolution2d_1 (AtrousCon (None, 64, 32, 32)    36928       zeropadding2d_2[0][0]            
____________________________________________________________________________________________________
batchnormalization_4 (BatchNorma (None, 64, 32, 32)    256         atrousconvolution2d_1[0][0]      
____________________________________________________________________________________________________
activation_2 (Activation)        (None, 64, 32, 32)    0           batchnormalization_4[0][0]       
____________________________________________________________________________________________________
zeropadding2d_3 (ZeroPadding2D)  (None, 64, 34, 34)    0           activation_2[0][0]               
____________________________________________________________________________________________________
atrousconvolution2d_2 (AtrousCon (None, 64, 32, 32)    36928       zeropadding2d_3[0][0]            
____________________________________________________________________________________________________
batchnormalization_5 (BatchNorma (None, 64, 32, 32)    256         atrousconvolution2d_2[0][0]      
____________________________________________________________________________________________________
activation_3 (Activation)        (None, 64, 32, 32)    0           batchnormalization_5[0][0]       
____________________________________________________________________________________________________
convolution2d_3 (Convolution2D)  (None, 50, 32, 32)    3250        activation_3[0][0]               
____________________________________________________________________________________________________
merge_1 (Merge)                  (None, 50, 32, 32)    0           convolution2d_3[0][0]            
                                                                   lambda_2[0][0]                   
____________________________________________________________________________________________________
lambda_1 (Lambda)                (None, 46, 32, 32)    0           convolution2d_1[0][0]            
____________________________________________________________________________________________________
batchnormalization_6 (BatchNorma (None, 50, 32, 32)    200         merge_1[0][0]                    
____________________________________________________________________________________________________
batchnormalization_1 (BatchNorma (None, 46, 32, 32)    184         lambda_1[0][0]                   
____________________________________________________________________________________________________
merge_2 (Merge)                  (None, 96, 32, 32)    0           batchnormalization_6[0][0]       
                                                                   batchnormalization_1[0][0]       
____________________________________________________________________________________________________
activation_4 (Activation)        (None, 96, 32, 32)    0           merge_2[0][0]                    
____________________________________________________________________________________________________
zeropadding2d_4 (ZeroPadding2D)  (None, 96, 34, 34)    0           activation_4[0][0]               
____________________________________________________________________________________________________
convolution2d_4 (Convolution2D)  (None, 96, 32, 32)    83040       zeropadding2d_4[0][0]            
____________________________________________________________________________________________________
lambda_4 (Lambda)                (None, 50, 32, 32)    0           convolution2d_4[0][0]            
____________________________________________________________________________________________________
batchnormalization_8 (BatchNorma (None, 50, 32, 32)    200         lambda_4[0][0]                   
____________________________________________________________________________________________________
convolution2d_5 (Convolution2D)  (None, 64, 32, 32)    3264        batchnormalization_8[0][0]       
____________________________________________________________________________________________________
batchnormalization_9 (BatchNorma (None, 64, 32, 32)    256         convolution2d_5[0][0]            
____________________________________________________________________________________________________
activation_5 (Activation)        (None, 64, 32, 32)    0           batchnormalization_9[0][0]       
____________________________________________________________________________________________________
zeropadding2d_5 (ZeroPadding2D)  (None, 64, 34, 34)    0           activation_5[0][0]               
____________________________________________________________________________________________________
atrousconvolution2d_3 (AtrousCon (None, 64, 32, 32)    36928       zeropadding2d_5[0][0]            
____________________________________________________________________________________________________
batchnormalization_10 (BatchNorm (None, 64, 32, 32)    256         atrousconvolution2d_3[0][0]      
____________________________________________________________________________________________________
activation_6 (Activation)        (None, 64, 32, 32)    0           batchnormalization_10[0][0]      
____________________________________________________________________________________________________
zeropadding2d_6 (ZeroPadding2D)  (None, 64, 34, 34)    0           activation_6[0][0]               
____________________________________________________________________________________________________
atrousconvolution2d_4 (AtrousCon (None, 64, 32, 32)    36928       zeropadding2d_6[0][0]            
____________________________________________________________________________________________________
batchnormalization_11 (BatchNorm (None, 64, 32, 32)    256         atrousconvolution2d_4[0][0]      
____________________________________________________________________________________________________
activation_7 (Activation)        (None, 64, 32, 32)    0           batchnormalization_11[0][0]      
____________________________________________________________________________________________________
convolution2d_6 (Convolution2D)  (None, 50, 32, 32)    3250        activation_7[0][0]               
____________________________________________________________________________________________________
merge_3 (Merge)                  (None, 50, 32, 32)    0           convolution2d_6[0][0]            
                                                                   lambda_4[0][0]                   
____________________________________________________________________________________________________
lambda_3 (Lambda)                (None, 46, 32, 32)    0           convolution2d_4[0][0]            
____________________________________________________________________________________________________
batchnormalization_12 (BatchNorm (None, 50, 32, 32)    200         merge_3[0][0]                    
____________________________________________________________________________________________________
batchnormalization_7 (BatchNorma (None, 46, 32, 32)    184         lambda_3[0][0]                   
____________________________________________________________________________________________________
merge_4 (Merge)                  (None, 96, 32, 32)    0           batchnormalization_12[0][0]      
                                                                   batchnormalization_7[0][0]       
____________________________________________________________________________________________________
activation_8 (Activation)        (None, 96, 32, 32)    0           merge_4[0][0]                    
____________________________________________________________________________________________________
zeropadding2d_7 (ZeroPadding2D)  (None, 96, 34, 34)    0           activation_8[0][0]               
____________________________________________________________________________________________________
convolution2d_7 (Convolution2D)  (None, 96, 16, 16)    83040       zeropadding2d_7[0][0]            
____________________________________________________________________________________________________
lambda_6 (Lambda)                (None, 50, 16, 16)    0           convolution2d_7[0][0]            
____________________________________________________________________________________________________
batchnormalization_14 (BatchNorm (None, 50, 16, 16)    200         lambda_6[0][0]                   
____________________________________________________________________________________________________
convolution2d_8 (Convolution2D)  (None, 64, 16, 16)    3264        batchnormalization_14[0][0]      
____________________________________________________________________________________________________
batchnormalization_15 (BatchNorm (None, 64, 16, 16)    256         convolution2d_8[0][0]            
____________________________________________________________________________________________________
activation_9 (Activation)        (None, 64, 16, 16)    0           batchnormalization_15[0][0]      
____________________________________________________________________________________________________
zeropadding2d_8 (ZeroPadding2D)  (None, 64, 18, 18)    0           activation_9[0][0]               
____________________________________________________________________________________________________
atrousconvolution2d_5 (AtrousCon (None, 64, 16, 16)    36928       zeropadding2d_8[0][0]            
____________________________________________________________________________________________________
batchnormalization_16 (BatchNorm (None, 64, 16, 16)    256         atrousconvolution2d_5[0][0]      
____________________________________________________________________________________________________
activation_10 (Activation)       (None, 64, 16, 16)    0           batchnormalization_16[0][0]      
____________________________________________________________________________________________________
zeropadding2d_9 (ZeroPadding2D)  (None, 64, 18, 18)    0           activation_10[0][0]              
____________________________________________________________________________________________________
atrousconvolution2d_6 (AtrousCon (None, 64, 16, 16)    36928       zeropadding2d_9[0][0]            
____________________________________________________________________________________________________
batchnormalization_17 (BatchNorm (None, 64, 16, 16)    256         atrousconvolution2d_6[0][0]      
____________________________________________________________________________________________________
activation_11 (Activation)       (None, 64, 16, 16)    0           batchnormalization_17[0][0]      
____________________________________________________________________________________________________
convolution2d_9 (Convolution2D)  (None, 50, 16, 16)    3250        activation_11[0][0]              
____________________________________________________________________________________________________
merge_5 (Merge)                  (None, 50, 16, 16)    0           convolution2d_9[0][0]            
                                                                   lambda_6[0][0]                   
____________________________________________________________________________________________________
lambda_5 (Lambda)                (None, 46, 16, 16)    0           convolution2d_7[0][0]            
____________________________________________________________________________________________________
batchnormalization_18 (BatchNorm (None, 50, 16, 16)    200         merge_5[0][0]                    
____________________________________________________________________________________________________
batchnormalization_13 (BatchNorm (None, 46, 16, 16)    184         lambda_5[0][0]                   
____________________________________________________________________________________________________
merge_6 (Merge)                  (None, 96, 16, 16)    0           batchnormalization_18[0][0]      
                                                                   batchnormalization_13[0][0]      
____________________________________________________________________________________________________
activation_12 (Activation)       (None, 96, 16, 16)    0           merge_6[0][0]                    
____________________________________________________________________________________________________
zeropadding2d_10 (ZeroPadding2D) (None, 96, 18, 18)    0           activation_12[0][0]              
____________________________________________________________________________________________________
convolution2d_10 (Convolution2D) (None, 192, 16, 16)   166080      zeropadding2d_10[0][0]           
____________________________________________________________________________________________________
lambda_8 (Lambda)                (None, 100, 16, 16)   0           convolution2d_10[0][0]           
____________________________________________________________________________________________________
batchnormalization_20 (BatchNorm (None, 100, 16, 16)   400         lambda_8[0][0]                   
____________________________________________________________________________________________________
convolution2d_11 (Convolution2D) (None, 64, 16, 16)    6464        batchnormalization_20[0][0]      
____________________________________________________________________________________________________
batchnormalization_21 (BatchNorm (None, 64, 16, 16)    256         convolution2d_11[0][0]           
____________________________________________________________________________________________________
activation_13 (Activation)       (None, 64, 16, 16)    0           batchnormalization_21[0][0]      
____________________________________________________________________________________________________
zeropadding2d_11 (ZeroPadding2D) (None, 64, 18, 18)    0           activation_13[0][0]              
____________________________________________________________________________________________________
atrousconvolution2d_7 (AtrousCon (None, 64, 16, 16)    36928       zeropadding2d_11[0][0]           
____________________________________________________________________________________________________
batchnormalization_22 (BatchNorm (None, 64, 16, 16)    256         atrousconvolution2d_7[0][0]      
____________________________________________________________________________________________________
activation_14 (Activation)       (None, 64, 16, 16)    0           batchnormalization_22[0][0]      
____________________________________________________________________________________________________
zeropadding2d_12 (ZeroPadding2D) (None, 64, 18, 18)    0           activation_14[0][0]              
____________________________________________________________________________________________________
atrousconvolution2d_8 (AtrousCon (None, 64, 16, 16)    36928       zeropadding2d_12[0][0]           
____________________________________________________________________________________________________
batchnormalization_23 (BatchNorm (None, 64, 16, 16)    256         atrousconvolution2d_8[0][0]      
____________________________________________________________________________________________________
activation_15 (Activation)       (None, 64, 16, 16)    0           batchnormalization_23[0][0]      
____________________________________________________________________________________________________
convolution2d_12 (Convolution2D) (None, 100, 16, 16)   6500        activation_15[0][0]              
____________________________________________________________________________________________________
merge_7 (Merge)                  (None, 100, 16, 16)   0           convolution2d_12[0][0]           
                                                                   lambda_8[0][0]                   
____________________________________________________________________________________________________
lambda_7 (Lambda)                (None, 92, 16, 16)    0           convolution2d_10[0][0]           
____________________________________________________________________________________________________
batchnormalization_24 (BatchNorm (None, 100, 16, 16)   400         merge_7[0][0]                    
____________________________________________________________________________________________________
batchnormalization_19 (BatchNorm (None, 92, 16, 16)    368         lambda_7[0][0]                   
____________________________________________________________________________________________________
merge_8 (Merge)                  (None, 192, 16, 16)   0           batchnormalization_24[0][0]      
                                                                   batchnormalization_19[0][0]      
____________________________________________________________________________________________________
activation_16 (Activation)       (None, 192, 16, 16)   0           merge_8[0][0]                    
____________________________________________________________________________________________________
zeropadding2d_13 (ZeroPadding2D) (None, 192, 18, 18)   0           activation_16[0][0]              
____________________________________________________________________________________________________
convolution2d_13 (Convolution2D) (None, 192, 16, 16)   331968      zeropadding2d_13[0][0]           
____________________________________________________________________________________________________
lambda_10 (Lambda)               (None, 100, 16, 16)   0           convolution2d_13[0][0]           
____________________________________________________________________________________________________
batchnormalization_26 (BatchNorm (None, 100, 16, 16)   400         lambda_10[0][0]                  
____________________________________________________________________________________________________
convolution2d_14 (Convolution2D) (None, 64, 16, 16)    6464        batchnormalization_26[0][0]      
____________________________________________________________________________________________________
batchnormalization_27 (BatchNorm (None, 64, 16, 16)    256         convolution2d_14[0][0]           
____________________________________________________________________________________________________
activation_17 (Activation)       (None, 64, 16, 16)    0           batchnormalization_27[0][0]      
____________________________________________________________________________________________________
zeropadding2d_14 (ZeroPadding2D) (None, 64, 18, 18)    0           activation_17[0][0]              
____________________________________________________________________________________________________
atrousconvolution2d_9 (AtrousCon (None, 64, 16, 16)    36928       zeropadding2d_14[0][0]           
____________________________________________________________________________________________________
batchnormalization_28 (BatchNorm (None, 64, 16, 16)    256         atrousconvolution2d_9[0][0]      
____________________________________________________________________________________________________
activation_18 (Activation)       (None, 64, 16, 16)    0           batchnormalization_28[0][0]      
____________________________________________________________________________________________________
zeropadding2d_15 (ZeroPadding2D) (None, 64, 18, 18)    0           activation_18[0][0]              
____________________________________________________________________________________________________
atrousconvolution2d_10 (AtrousCo (None, 64, 16, 16)    36928       zeropadding2d_15[0][0]           
____________________________________________________________________________________________________
batchnormalization_29 (BatchNorm (None, 64, 16, 16)    256         atrousconvolution2d_10[0][0]     
____________________________________________________________________________________________________
activation_19 (Activation)       (None, 64, 16, 16)    0           batchnormalization_29[0][0]      
____________________________________________________________________________________________________
convolution2d_15 (Convolution2D) (None, 100, 16, 16)   6500        activation_19[0][0]              
____________________________________________________________________________________________________
merge_9 (Merge)                  (None, 100, 16, 16)   0           convolution2d_15[0][0]           
                                                                   lambda_10[0][0]                  
____________________________________________________________________________________________________
lambda_9 (Lambda)                (None, 92, 16, 16)    0           convolution2d_13[0][0]           
____________________________________________________________________________________________________
batchnormalization_30 (BatchNorm (None, 100, 16, 16)   400         merge_9[0][0]                    
____________________________________________________________________________________________________
batchnormalization_25 (BatchNorm (None, 92, 16, 16)    368         lambda_9[0][0]                   
____________________________________________________________________________________________________
merge_10 (Merge)                 (None, 192, 16, 16)   0           batchnormalization_30[0][0]      
                                                                   batchnormalization_25[0][0]      
____________________________________________________________________________________________________
activation_20 (Activation)       (None, 192, 16, 16)   0           merge_10[0][0]                   
____________________________________________________________________________________________________
zeropadding2d_16 (ZeroPadding2D) (None, 192, 18, 18)   0           activation_20[0][0]              
____________________________________________________________________________________________________
convolution2d_16 (Convolution2D) (None, 192, 8, 8)     331968      zeropadding2d_16[0][0]           
____________________________________________________________________________________________________
lambda_12 (Lambda)               (None, 100, 8, 8)     0           convolution2d_16[0][0]           
____________________________________________________________________________________________________
batchnormalization_32 (BatchNorm (None, 100, 8, 8)     400         lambda_12[0][0]                  
____________________________________________________________________________________________________
convolution2d_17 (Convolution2D) (None, 64, 8, 8)      6464        batchnormalization_32[0][0]      
____________________________________________________________________________________________________
batchnormalization_33 (BatchNorm (None, 64, 8, 8)      256         convolution2d_17[0][0]           
____________________________________________________________________________________________________
activation_21 (Activation)       (None, 64, 8, 8)      0           batchnormalization_33[0][0]      
____________________________________________________________________________________________________
zeropadding2d_17 (ZeroPadding2D) (None, 64, 10, 10)    0           activation_21[0][0]              
____________________________________________________________________________________________________
atrousconvolution2d_11 (AtrousCo (None, 64, 8, 8)      36928       zeropadding2d_17[0][0]           
____________________________________________________________________________________________________
batchnormalization_34 (BatchNorm (None, 64, 8, 8)      256         atrousconvolution2d_11[0][0]     
____________________________________________________________________________________________________
activation_22 (Activation)       (None, 64, 8, 8)      0           batchnormalization_34[0][0]      
____________________________________________________________________________________________________
zeropadding2d_18 (ZeroPadding2D) (None, 64, 10, 10)    0           activation_22[0][0]              
____________________________________________________________________________________________________
atrousconvolution2d_12 (AtrousCo (None, 64, 8, 8)      36928       zeropadding2d_18[0][0]           
____________________________________________________________________________________________________
batchnormalization_35 (BatchNorm (None, 64, 8, 8)      256         atrousconvolution2d_12[0][0]     
____________________________________________________________________________________________________
activation_23 (Activation)       (None, 64, 8, 8)      0           batchnormalization_35[0][0]      
____________________________________________________________________________________________________
convolution2d_18 (Convolution2D) (None, 100, 8, 8)     6500        activation_23[0][0]              
____________________________________________________________________________________________________
merge_11 (Merge)                 (None, 100, 8, 8)     0           convolution2d_18[0][0]           
                                                                   lambda_12[0][0]                  
____________________________________________________________________________________________________
lambda_11 (Lambda)               (None, 92, 8, 8)      0           convolution2d_16[0][0]           
____________________________________________________________________________________________________
batchnormalization_36 (BatchNorm (None, 100, 8, 8)     400         merge_11[0][0]                   
____________________________________________________________________________________________________
batchnormalization_31 (BatchNorm (None, 92, 8, 8)      368         lambda_11[0][0]                  
____________________________________________________________________________________________________
merge_12 (Merge)                 (None, 192, 8, 8)     0           batchnormalization_36[0][0]      
                                                                   batchnormalization_31[0][0]      
____________________________________________________________________________________________________
activation_24 (Activation)       (None, 192, 8, 8)     0           merge_12[0][0]                   
____________________________________________________________________________________________________
convolution2d_19 (Convolution2D) (None, 192, 6, 6)     331968      activation_24[0][0]              
____________________________________________________________________________________________________
batchnormalization_37 (BatchNorm (None, 192, 6, 6)     768         convolution2d_19[0][0]           
____________________________________________________________________________________________________
activation_25 (Activation)       (None, 192, 6, 6)     0           batchnormalization_37[0][0]      
____________________________________________________________________________________________________
convolution2d_20 (Convolution2D) (None, 192, 6, 6)     37056       activation_25[0][0]              
____________________________________________________________________________________________________
batchnormalization_38 (BatchNorm (None, 192, 6, 6)     768         convolution2d_20[0][0]           
____________________________________________________________________________________________________
activation_26 (Activation)       (None, 192, 6, 6)     0           batchnormalization_38[0][0]      
____________________________________________________________________________________________________
convolution2d_21 (Convolution2D) (None, 100, 6, 6)     19300       activation_26[0][0]              
____________________________________________________________________________________________________
batchnormalization_39 (BatchNorm (None, 100, 6, 6)     400         convolution2d_21[0][0]           
____________________________________________________________________________________________________
activation_27 (Activation)       (None, 100, 6, 6)     0           batchnormalization_39[0][0]      
____________________________________________________________________________________________________
averagepooling2d_1 (AveragePooli (None, 100, 1, 1)     0           activation_27[0][0]              
____________________________________________________________________________________________________
flatten_1 (Flatten)              (None, 100)           0           averagepooling2d_1[0][0]         
____________________________________________________________________________________________________
output (Activation)              (None, 100)           0           flatten_1[0][0]                  
====================================================================================================
Total params: 1,900,478
Trainable params: 505,674
Non-trainable params: 1,394,804
____________________________________________________________________________________________________

 distortion type blur
Epoch : 
1
Learning rate : 0.00999999977648
Epoch 1/1
…
