nohup: ignoring input
Using Theano backend.
0.5
compiled model successfully
____________________________________________________________________________________________________
Layer (type)                     Output Shape          Param #     Connected to                     
====================================================================================================
input (InputLayer)               (None, 3, 32, 32)     0                                            
____________________________________________________________________________________________________
zeropadding2d_1 (ZeroPadding2D)  (None, 3, 34, 34)     0           input[0][0]                      
____________________________________________________________________________________________________
convolution2d_1 (Convolution2D)  (None, 96, 32, 32)    2688        zeropadding2d_1[0][0]            
____________________________________________________________________________________________________
lambda_2 (Lambda)                (None, 50, 32, 32)    0           convolution2d_1[0][0]            
____________________________________________________________________________________________________
batchnormalization_2 (BatchNorma (None, 50, 32, 32)    200         lambda_2[0][0]                   
____________________________________________________________________________________________________
convolution2d_2 (Convolution2D)  (None, 64, 32, 32)    3264        batchnormalization_2[0][0]       
____________________________________________________________________________________________________
batchnormalization_3 (BatchNorma (None, 64, 32, 32)    256         convolution2d_2[0][0]            
____________________________________________________________________________________________________
activation_1 (Activation)        (None, 64, 32, 32)    0           batchnormalization_3[0][0]       
____________________________________________________________________________________________________
zeropadding2d_2 (ZeroPadding2D)  (None, 64, 34, 34)    0           activation_1[0][0]               
____________________________________________________________________________________________________
atrousconvolution2d_1 (AtrousCon (None, 64, 32, 32)    36928       zeropadding2d_2[0][0]            
____________________________________________________________________________________________________
batchnormalization_4 (BatchNorma (None, 64, 32, 32)    256         atrousconvolution2d_1[0][0]      
____________________________________________________________________________________________________
activation_2 (Activation)        (None, 64, 32, 32)    0           batchnormalization_4[0][0]       
____________________________________________________________________________________________________
zeropadding2d_3 (ZeroPadding2D)  (None, 64, 34, 34)    0           activation_2[0][0]               
____________________________________________________________________________________________________
atrousconvolution2d_2 (AtrousCon (None, 64, 32, 32)    36928       zeropadding2d_3[0][0]            
____________________________________________________________________________________________________
batchnormalization_5 (BatchNorma (None, 64, 32, 32)    256         atrousconvolution2d_2[0][0]      
____________________________________________________________________________________________________
activation_3 (Activation)        (None, 64, 32, 32)    0           batchnormalization_5[0][0]       
____________________________________________________________________________________________________
convolution2d_3 (Convolution2D)  (None, 50, 32, 32)    3250        activation_3[0][0]               
____________________________________________________________________________________________________
merge_1 (Merge)                  (None, 50, 32, 32)    0           convolution2d_3[0][0]            
                                                                   lambda_2[0][0]                   
____________________________________________________________________________________________________
lambda_1 (Lambda)                (None, 46, 32, 32)    0           convolution2d_1[0][0]            
____________________________________________________________________________________________________
batchnormalization_6 (BatchNorma (None, 50, 32, 32)    200         merge_1[0][0]                    
____________________________________________________________________________________________________
batchnormalization_1 (BatchNorma (None, 46, 32, 32)    184         lambda_1[0][0]                   
____________________________________________________________________________________________________
merge_2 (Merge)                  (None, 96, 32, 32)    0           batchnormalization_6[0][0]       
                                                                   batchnormalization_1[0][0]       
____________________________________________________________________________________________________
activation_4 (Activation)        (None, 96, 32, 32)    0           merge_2[0][0]                    
____________________________________________________________________________________________________
zeropadding2d_4 (ZeroPadding2D)  (None, 96, 34, 34)    0           activation_4[0][0]               
____________________________________________________________________________________________________
convolution2d_4 (Convolution2D)  (None, 96, 32, 32)    83040       zeropadding2d_4[0][0]            
____________________________________________________________________________________________________
batchnormalization_7 (BatchNorma (None, 96, 32, 32)    384         convolution2d_4[0][0]            
____________________________________________________________________________________________________
activation_5 (Activation)        (None, 96, 32, 32)    0           batchnormalization_7[0][0]       
____________________________________________________________________________________________________
zeropadding2d_5 (ZeroPadding2D)  (None, 96, 34, 34)    0           activation_5[0][0]               
____________________________________________________________________________________________________
convolution2d_5 (Convolution2D)  (None, 96, 16, 16)    83040       zeropadding2d_5[0][0]            
____________________________________________________________________________________________________
batchnormalization_8 (BatchNorma (None, 96, 16, 16)    384         convolution2d_5[0][0]            
____________________________________________________________________________________________________
activation_6 (Activation)        (None, 96, 16, 16)    0           batchnormalization_8[0][0]       
____________________________________________________________________________________________________
zeropadding2d_6 (ZeroPadding2D)  (None, 96, 18, 18)    0           activation_6[0][0]               
____________________________________________________________________________________________________
convolution2d_6 (Convolution2D)  (None, 192, 16, 16)   166080      zeropadding2d_6[0][0]            
____________________________________________________________________________________________________
batchnormalization_9 (BatchNorma (None, 192, 16, 16)   768         convolution2d_6[0][0]            
____________________________________________________________________________________________________
activation_7 (Activation)        (None, 192, 16, 16)   0           batchnormalization_9[0][0]       
____________________________________________________________________________________________________
zeropadding2d_7 (ZeroPadding2D)  (None, 192, 18, 18)   0           activation_7[0][0]               
____________________________________________________________________________________________________
convolution2d_7 (Convolution2D)  (None, 192, 16, 16)   331968      zeropadding2d_7[0][0]            
____________________________________________________________________________________________________
batchnormalization_10 (BatchNorm (None, 192, 16, 16)   768         convolution2d_7[0][0]            
____________________________________________________________________________________________________
activation_8 (Activation)        (None, 192, 16, 16)   0           batchnormalization_10[0][0]      
____________________________________________________________________________________________________
zeropadding2d_8 (ZeroPadding2D)  (None, 192, 18, 18)   0           activation_8[0][0]               
____________________________________________________________________________________________________
convolution2d_8 (Convolution2D)  (None, 192, 8, 8)     331968      zeropadding2d_8[0][0]            
____________________________________________________________________________________________________
batchnormalization_11 (BatchNorm (None, 192, 8, 8)     768         convolution2d_8[0][0]            
____________________________________________________________________________________________________
activation_9 (Activation)        (None, 192, 8, 8)     0           batchnormalization_11[0][0]      
____________________________________________________________________________________________________
convolution2d_9 (Convolution2D)  (None, 192, 6, 6)     331968      activation_9[0][0]               
____________________________________________________________________________________________________
batchnormalization_12 (BatchNorm (None, 192, 6, 6)     768         convolution2d_9[0][0]            
____________________________________________________________________________________________________
activation_10 (Activation)       (None, 192, 6, 6)     0           batchnormalization_12[0][0]      
____________________________________________________________________________________________________
convolution2d_10 (Convolution2D) (None, 192, 6, 6)     37056       activation_10[0][0]              
____________________________________________________________________________________________________
batchnormalization_13 (BatchNorm (None, 192, 6, 6)     768         convolution2d_10[0][0]           
____________________________________________________________________________________________________
activation_11 (Activation)       (None, 192, 6, 6)     0           batchnormalization_13[0][0]      
____________________________________________________________________________________________________
convolution2d_11 (Convolution2D) (None, 100, 6, 6)     19300       activation_11[0][0]              
____________________________________________________________________________________________________
batchnormalization_14 (BatchNorm (None, 100, 6, 6)     400         convolution2d_11[0][0]           
____________________________________________________________________________________________________
activation_12 (Activation)       (None, 100, 6, 6)     0           batchnormalization_14[0][0]      
____________________________________________________________________________________________________
averagepooling2d_1 (AveragePooli (None, 100, 1, 1)     0           activation_12[0][0]              
____________________________________________________________________________________________________
flatten_1 (Flatten)              (None, 100)           0           averagepooling2d_1[0][0]         
____________________________________________________________________________________________________
output (Activation)              (None, 100)           0           flatten_1[0][0]                  
====================================================================================================
Total params: 1,473,838
Trainable params: 80,954
Non-trainable params: 1,392,884
____________________________________________________________________________________________________

 distortion type awgn
Epoch : 
1
Learning rate : 0.10000000149
Epoch 1/1
…
