nohup: ignoring input
Using Theano backend.

 Finetune model with number of trainable layers 1
compiled model successfully
____________________________________________________________________________________________________
Layer (type)                     Output Shape          Param #     Connected to                     
====================================================================================================
zeropadding2d_1 (ZeroPadding2D)  (None, 3, 34, 34)     0           zeropadding2d_input_1[0][0]      
____________________________________________________________________________________________________
conv1_1 (Convolution2D)          (None, 96, 32, 32)    2688        zeropadding2d_1[0][0]            
____________________________________________________________________________________________________
batchnormalization_1 (BatchNorma (None, 96, 32, 32)    384         conv1_1[0][0]                    
____________________________________________________________________________________________________
conv1_1_relu (Activation)        (None, 96, 32, 32)    0           batchnormalization_1[0][0]       
____________________________________________________________________________________________________
zeropadding2d_2 (ZeroPadding2D)  (None, 96, 34, 34)    0           conv1_1_relu[0][0]               
____________________________________________________________________________________________________
conv1_2 (Convolution2D)          (None, 96, 32, 32)    83040       zeropadding2d_2[0][0]            
____________________________________________________________________________________________________
batchnormalization_2 (BatchNorma (None, 96, 32, 32)    384         conv1_2[0][0]                    
____________________________________________________________________________________________________
conv1_2_relu (Activation)        (None, 96, 32, 32)    0           batchnormalization_2[0][0]       
____________________________________________________________________________________________________
zeropadding2d_3 (ZeroPadding2D)  (None, 96, 34, 34)    0           conv1_2_relu[0][0]               
____________________________________________________________________________________________________
max_pool1 (Convolution2D)        (None, 96, 16, 16)    83040       zeropadding2d_3[0][0]            
____________________________________________________________________________________________________
batchnormalization_3 (BatchNorma (None, 96, 16, 16)    384         max_pool1[0][0]                  
____________________________________________________________________________________________________
max_pool1_relu (Activation)      (None, 96, 16, 16)    0           batchnormalization_3[0][0]       
____________________________________________________________________________________________________
zeropadding2d_4 (ZeroPadding2D)  (None, 96, 18, 18)    0           max_pool1_relu[0][0]             
____________________________________________________________________________________________________
conv2_1 (Convolution2D)          (None, 192, 16, 16)   166080      zeropadding2d_4[0][0]            
____________________________________________________________________________________________________
batchnormalization_4 (BatchNorma (None, 192, 16, 16)   768         conv2_1[0][0]                    
____________________________________________________________________________________________________
conv2_1_relu (Activation)        (None, 192, 16, 16)   0           batchnormalization_4[0][0]       
____________________________________________________________________________________________________
zeropadding2d_5 (ZeroPadding2D)  (None, 192, 18, 18)   0           conv2_1_relu[0][0]               
____________________________________________________________________________________________________
conv2_2 (Convolution2D)          (None, 192, 16, 16)   331968      zeropadding2d_5[0][0]            
____________________________________________________________________________________________________
batchnormalization_5 (BatchNorma (None, 192, 16, 16)   768         conv2_2[0][0]                    
____________________________________________________________________________________________________
conv2_2_relu (Activation)        (None, 192, 16, 16)   0           batchnormalization_5[0][0]       
____________________________________________________________________________________________________
zeropadding2d_6 (ZeroPadding2D)  (None, 192, 18, 18)   0           conv2_2_relu[0][0]               
____________________________________________________________________________________________________
max_pool2 (Convolution2D)        (None, 192, 8, 8)     331968      zeropadding2d_6[0][0]            
____________________________________________________________________________________________________
batchnormalization_6 (BatchNorma (None, 192, 8, 8)     768         max_pool2[0][0]                  
____________________________________________________________________________________________________
max_pool2_relu (Activation)      (None, 192, 8, 8)     0           batchnormalization_6[0][0]       
____________________________________________________________________________________________________
conv3_1 (Convolution2D)          (None, 192, 6, 6)     331968      max_pool2_relu[0][0]             
____________________________________________________________________________________________________
batchnormalization_7 (BatchNorma (None, 192, 6, 6)     768         conv3_1[0][0]                    
____________________________________________________________________________________________________
activation_1 (Activation)        (None, 192, 6, 6)     0           batchnormalization_7[0][0]       
____________________________________________________________________________________________________
conv3_2 (Convolution2D)          (None, 192, 6, 6)     37056       activation_1[0][0]               
____________________________________________________________________________________________________
batchnormalization_8 (BatchNorma (None, 192, 6, 6)     768         conv3_2[0][0]                    
____________________________________________________________________________________________________
activation_2 (Activation)        (None, 192, 6, 6)     0           batchnormalization_8[0][0]       
____________________________________________________________________________________________________
conv3_3 (Convolution2D)          (None, 100, 6, 6)     19300       activation_2[0][0]               
____________________________________________________________________________________________________
batchnormalization_9 (BatchNorma (None, 100, 6, 6)     400         conv3_3[0][0]                    
____________________________________________________________________________________________________
activation_3 (Activation)        (None, 100, 6, 6)     0           batchnormalization_9[0][0]       
____________________________________________________________________________________________________
averagepooling2d_1 (AveragePooli (None, 100, 1, 1)     0           activation_3[0][0]               
____________________________________________________________________________________________________
flatten_1 (Flatten)              (None, 100)           0           averagepooling2d_1[0][0]         
____________________________________________________________________________________________________
output (Activation)              (None, 100)           0           flatten_1[0][0]                  
====================================================================================================
Total params: 1,392,500
Trainable params: 2,880
Non-trainable params: 1,389,620
____________________________________________________________________________________________________

 distortion type blur

 Testing : 

 Accuracy is : 0.6304

 Accuracy is : 0.6294
…
