nohup: ignoring input
Files already downloaded and verified
Files already downloaded and verified
Files already downloaded and verified
=> creating model 'resnet'
True
=> loading checkpoint './runs/cifar100_resnet18_2_4/model_best.pth.tar'
=> loaded checkpoint './runs/cifar100_resnet18_2_4/model_best.pth.tar'
the number of model parameters: 150772
total bn layer: 13
replaced: bn
replaced: bn
replaced: bn
replaced: bn
replaced: bn
replaced: bn
replaced: bn
replaced: bn
replaced: bn
replaced: bn
replaced: bn
replaced: bn
replaced: bn
DataParallel(
  (module): ResNet(
    (conv1): Conv2d(3, 16, kernel_size=(3, 3), stride=(1, 1), padding=(1, 1), bias=False)
    (bn1): dnnrepair_BatchNorm2d(16, eps=1e-05, momentum=0.1, affine=True, track_running_stats=True)
    (relu): ReLU(inplace=True)
    (layer1): Sequential(
      (0): Bottleneck(
        (conv1): Conv2d(16, 16, kernel_size=(1, 1), stride=(1, 1), bias=False)
        (bn1): dnnrepair_BatchNorm2d(16, eps=1e-05, momentum=0.1, affine=True, track_running_stats=True)
        (conv2): Conv2d(16, 16, kernel_size=(3, 3), stride=(1, 1), padding=(1, 1), bias=False)
        (bn2): dnnrepair_BatchNorm2d(16, eps=1e-05, momentum=0.1, affine=True, track_running_stats=True)
        (conv3): Conv2d(16, 64, kernel_size=(1, 1), stride=(1, 1), bias=False)
        (bn3): dnnrepair_BatchNorm2d(64, eps=1e-05, momentum=0.1, affine=True, track_running_stats=True)
        (relu): ReLU(inplace=True)
        (downsample): Sequential(
          (0): Conv2d(16, 64, kernel_size=(1, 1), stride=(1, 1), bias=False)
          (1): dnnrepair_BatchNorm2d(64, eps=1e-05, momentum=0.1, affine=True, track_running_stats=True)
        )
      )
    )
    (layer2): Sequential(
      (0): Bottleneck(
        (conv1): Conv2d(64, 32, kernel_size=(1, 1), stride=(1, 1), bias=False)
        (bn1): dnnrepair_BatchNorm2d(32, eps=1e-05, momentum=0.1, affine=True, track_running_stats=True)
        (conv2): Conv2d(32, 32, kernel_size=(3, 3), stride=(2, 2), padding=(1, 1), bias=False)
        (bn2): dnnrepair_BatchNorm2d(32, eps=1e-05, momentum=0.1, affine=True, track_running_stats=True)
        (conv3): Conv2d(32, 128, kernel_size=(1, 1), stride=(1, 1), bias=False)
        (bn3): dnnrepair_BatchNorm2d(128, eps=1e-05, momentum=0.1, affine=True, track_running_stats=True)
        (relu): ReLU(inplace=True)
        (downsample): Sequential(
          (0): Conv2d(64, 128, kernel_size=(1, 1), stride=(2, 2), bias=False)
          (1): dnnrepair_BatchNorm2d(128, eps=1e-05, momentum=0.1, affine=True, track_running_stats=True)
        )
      )
    )
    (layer3): Sequential(
      (0): Bottleneck(
        (conv1): Conv2d(128, 64, kernel_size=(1, 1), stride=(1, 1), bias=False)
        (bn1): dnnrepair_BatchNorm2d(64, eps=1e-05, momentum=0.1, affine=True, track_running_stats=True)
        (conv2): Conv2d(64, 64, kernel_size=(3, 3), stride=(2, 2), padding=(1, 1), bias=False)
        (bn2): dnnrepair_BatchNorm2d(64, eps=1e-05, momentum=0.1, affine=True, track_running_stats=True)
        (conv3): Conv2d(64, 256, kernel_size=(1, 1), stride=(1, 1), bias=False)
        (bn3): dnnrepair_BatchNorm2d(256, eps=1e-05, momentum=0.1, affine=True, track_running_stats=True)
        (relu): ReLU(inplace=True)
        (downsample): Sequential(
          (0): Conv2d(128, 256, kernel_size=(1, 1), stride=(2, 2), bias=False)
          (1): dnnrepair_BatchNorm2d(256, eps=1e-05, momentum=0.1, affine=True, track_running_stats=True)
        )
      )
    )
    (avgpool): AvgPool2d(kernel_size=8, stride=8, padding=0)
    (fc): Linear(in_features=256, out_features=100, bias=True)
  )
)
Train 0:   0%|          | 0/391 [00:00<?, ?it/s]Train 0:   0%|          | 0/391 [00:05<?, ?it/s, loss=0.814]Train 0:   0%|          | 1/391 [00:05<37:48,  5.82s/it, loss=0.814]Train 0:   0%|          | 1/391 [00:06<37:48,  5.82s/it, loss=0.896]Train 0:   1%|          | 2/391 [00:06<16:15,  2.51s/it, loss=0.896]Train 0:   1%|          | 2/39
…
